Hope/data.pth (torch, 4503 bytes, 6 tensors)

l1.weight f4 [8, 40]
-0.65487856 -0.336208 -0.04095354 -0.028735325 -0.06715203 0.30645978 -0.7592804 -0.17790627
0.3840552 0.90698445 0.3612488 -0.029185528 0.3690897 -0.30681846 -0.2197949 -0.48835212
-0.59772426 -0.29578912 0.035011645 -0.28596768 0.03354113 0.77329487 -0.37553883 -0.43501073
-0.36890543 0.34706092 1.0707216 -0.07553152 -0.39967185 0.24143806 0.5666831 1.2168181
0.9186702 -0.07453027 -0.4604471 0.8132173 -0.20034522 -0.14979528 0.4601314 1.1277716
0.4301083 0.47395292 0.359518 -0.3447373 -0.3799054 0.25981396 0.4553622 0.52911836
0.31294602 -0.26705438 0.43357593 -0.28009903 0.10762728 0.5492831 0.3437741 0.4232218
0.3071386 1.0488688 0.48052922 0.54715174 -0.20375943 0.33634508 -0.5700315 -0.5691186
0.28839517 0.65685856 -0.48212877 0.31624672 1.0378854 -0.18847044 0.34510502 -0.5664184
0.56451166 -0.41350552 0.38957515 0.0683852 0.24739878 0.35027045 0.022213131 -0.27927878
-0.08576932 -0.014477655 -0.04695525 -0.06531159 -0.06090296 -0.14251105 -0.104128934 -0.06252487
0.119120196 -0.11932424 -0.134662 0.070728704 0.09340156 -0.1465168 -0.12993781 0.023031175
0.11025883 0.10701196 -0.027161459 -0.15099686 -0.08729397 0.031660296 0.12905319 -0.017655522
-0.06300268 0.03545545 -0.095020615 0.115723945 -0.068495974 -0.008395299 0.11395161 -0.084090285
-0.089981206 0.016875893 -0.08392021 -0.08341607 -0.047563292 0.05307217 -0.017856374 0.035153866
-0.09805785 0.1029447 0.29408613 -0.16255663 0.055908956 0.02473651 0.853267 -0.017657414
0.0020528138 -0.30078444 -0.07474361 -0.1278475 -0.32937148 -0.054132484 -0.06806783 0.47180846
0.6354507 0.026686078 0.44522345 0.18599725 0.06490696 -0.16343296 -0.08496812 -0.09330238
0.7187164 -0.14589132 -0.33482888 0.3963851 -0.13574281 0.6539899 0.2604586 -0.0728321
0.60713506 0.020833835 -0.098843426 0.21602514 -0.31290475 -0.21417531 -0.051236704 -0.2930231
-0.51071805 -0.13518222 0.35703403 0.67536634 0.28784212 0.44139612 0.741406 0.08937984
0.46584767 0.1720458 0.5518545 0.4470859 0.36459807 -0.21576695 0.2301 0.4163023
0.43077305 -0.11014793 0.3441755 -0.11120458 0.49211466 0.5967145 0.55630434 0.48986357
0.4264448 -0.4619691 -0.5048947 0.21343873 -0.34266338 -0.30111447 0.43596485 -0.22345112
0.2248279 0.43448964 -0.5107102 0.013865723 -0.18080617 -0.14793982 1.1401074 0.2491803
1.0462072 0.41338822 -0.1432508 0.7246567 0.5590319 -0.4811903 -0.37958983 0.2271122
-0.2109019 0.53450614 -0.3612418 0.54960066 -0.3119583 0.29827765 0.29081234 -0.19748138
-0.46851543 -0.48837572 0.0072435075 0.289337 0.4020508 -0.2296546 0.79654 0.76922166
0.0435838 0.22521853 -0.01401332 0.37074465 -0.4959322 -0.32933694 -0.4525607 -0.27771017
-0.5410806 0.6158213 0.8391288 -0.0786899 0.3753402 0.2682208 -0.36084345 -0.5847085
0.7990978 0.6168718 -0.19027819 -0.33895734 -0.3017872 0.49636906 -0.42348263 0.56631345
0.6240563 -0.46874052 0.3901982 -0.38571733 0.48396122 0.5316528 0.52429885 -0.006093503
00000000: 1fa6 27bf 7423 acbe e6be 27bd 5866 ebbc
00000010: 0187 89bd 4ce8 9c3e 3360 42bf 102d 36be
00000020: e2a2 c43e 2230 683f 9af5 b83e 7d16 efbc
00000030: 53f9 bc3e 4f17 9dbe ea11 61be 4a09 fabe
00000040: 7504 19bf ac71 97be 5f68 0f3d 5b6a 92be
00000050: 6d62 093d a7f6 453f a046 c0be bab9 debe
00000060: 2ce1 bcbe f8b1 b13e 680d 893f 45b0 9abd
00000070: caa1 ccbe 8a3b 773e 2512 113f b2c0 9b3f
00000080: f82d 6b3f 54a3 98bd b9bf ebbe 022f 503f
00000090: 4c27 4dbe ef63 19be 5896 eb3e d25a 903f
000000a0: 2837 dc3e f5a9 f23e be12 b83e 6881 b0be
000000b0: f682 c2be 5606 853e 3c25 e93e 4d74 073f
000000c0: 763a a03e 5abb 88be aafd dd3e 2469 8fbe
000000d0: b16b dc3d d19d 0c3f 2903 b03e 87b0 d83e
000000e0: 4541 9d3e 5541 863f ed07 f63e 2312 0c3f
000000f0: 50a6 50be 6c35 ac3e 96ed 11bf c2b1 11bf
00000100: 88a8 933e e227 283f 95d9 f6be 17eb a13e
00000110: 6ed9 843f 65fe 40be 9bb1 b03e cc00 11bf
00000120: d683 103f ffb6 d3be 6576 c73e 8a0d 8c3d
00000130: 1b56 7d3e a656 b33e 50f8 b53c a1fd 8ebe
00000140: d3a7 afbd b033 6dbc 2654 40bd 15c2 85bd
00000150: 6275 79bd 6bee 11be 8d41 d5bd 0a0d 80bd
00000160: 4af5 f33d 4460 f4bd d6e4 09be 36da 903d
00000170: 5149 bf3d 8008 16be 6b0e 05be e0ab bc3c
00000180: 62cf e13d 1629 db3d b581 debc ec9e 1abe
00000190: 2ec7 b2bd 3aae 013d 8526 043e 50a2 90bc
000001a0: 8d07 81bd bc39 113d 2b9a c2bd ad00 ed3d
000001b0: 9e47 8cbd 708c 09bc 765f e93d 8737 acbd
000001c0: 1148 b8bd 503f 8a3c 5cde abbd 0bd6 aabd
000001d0: bad1 42bd 3462 593d 8847 92bc 80fd 0f3d
000001e0: 8ed2 c8bd acd4 d23d 7592 963e 3f75 26be
000001f0: ca00 653d 39a4 ca3c b56f 5a3f 48a6 90bc
00000200: 8088 063b 6b00 9abe 2e13 99bd 74ea 02be
00000210: 61a3 a8be 06ba 5dbd 2567 8bbd e190 f13e
00000220: e6ac 223f c39c da3c 54f4 e33e 1076 3e3e
00000230: f1ed 843d f85a 27be c403 aebd 5115 bfbd
00000240: ccfd 373f 8964 15be b16e abbe fdf2 ca3e
00000250: 2a00 0bbe e26b 273f d45a 853e ff28 95bd
00000260: 346d 1b3f b8ab aa3c 6c6e cabd b235 5d3e
00000270: 0d35 a0be c650 5bbe 94dd 51bd 2007 96be
00000280: 6bbe 02bf 356d 0abe 2acd b63e cfe4 2c3f
00000290: 0b60 933e acfe e13e c9cc 3d3f c70c b73d
000002a0: 9683 ee3e c62c 303e 5646 0d3f 71e8 e43e
000002b0: 99ac ba3e 03f2 5cbe 569f 6b3e 9325 d53e
000002c0: 498e dc3e 3d95 e1bd c537 b03e 3abf e3bd
000002d0: 74f6 fb3e 48c2 183f f669 0e3f 66cf fa3e
000002e0: f956 da3e 3787 ecbe c740 01bf af8f 5a3e
000002f0: 9371 afbe ad2b 9abe c936 df3e 5fd0 64be
00000300: 4939 663e 6d75 de3e e7bd 02bf 0f2d 633c
00000310: 4125 39be 897d 17be 0aef 913f 1f29 7f3e
00000320: 1eea 853f 9fa7 d33e 56b0 12be 1a83 393f
00000330: b71c 0f3f 935e f6be 9959 c2be 1a90 683e
00000340: abf6 57be 65d5 083f aff4 b8be a1b2 0c3f
00000350: 00b9 9fbe d9b7 983e 5be5 943e 8f38 4abe
00000360: 41e1 efbe 620c fabe f25a ed3b fb23 943e
00000370: 9ad9 cd3e 932a 6bbe 0cea 4b3f b6eb 443f
00000380: ed84 323d b09f 663e 2098 65bc 3ed2 bd3e
00000390: d3ea fdbe da9e a8be 09b6 e7be 0730 8ebe
000003a0: 4284 0abf 77a6 1d3f 25d1 563f 2c28 a1bd
000003b0: 972c c03e 3d54 893e 79c0 b8be 75af 15bf
000003c0: ac91 4c3f 4feb 1d3f 49d8 42be d18b adbe
000003d0: da83 9abe 1624 fe3e b7d2 d8be ebf9 103f
000003e0: 27c2 1f3f c2fe efbe 0fc8 c73e be7c c5be
000003f0: c4c9 f73e 661a 083f 7338 063f 02ac c7bb

l1.bias f4 [8]
0.6976416 0.763145 -0.15097773 0.0931216 0.5107239 1.2233089 0.76207757 0.7571072
00000000: a498 323f 795d 433f e899 1abe 8ab6 be3d
00000010: cdbe 023f 6395 9c3f 8417 433f c7d1 413f

l2.weight f4 [8, 8]
0.15533015 1.5972443 0.2586033 -1.0960569 -1.1763074 0.9331968 0.18039536 -1.0797883
-0.8776048 -0.35121775 -0.051078644 0.1419572 0.8836776 1.3241049 -0.22350383 1.004756
1.0147704 -0.43240714 0.13354534 -0.7849845 0.82154864 0.9168426 -1.4386013 0.58940685
-0.8399829 0.70969504 0.07605785 0.8189047 0.47590443 -0.3505689 0.33364132 0.5594385
1.373427 -0.45573682 0.22671781 -0.3979222 0.28887382 0.31833762 1.777804 0.60348785
-0.20334935 -0.14054932 -0.2897181 -0.3045184 -0.37731236 0.050912887 0.15367545 0.00542635
-1.4057376 0.27948558 0.24084982 -0.54476935 -0.59564465 0.80471987 1.0515745 0.74899566
-0.1151332 1.2305177 0.18707564 0.12705794 1.4582897 -0.6137083 0.06810621 1.3922855
00000000: de0e 1f3e 8072 cc3f a767 843e 984b 8cbf
00000010: 3e91 96bf fce5 6e3f 90b9 383e 8136 8abf
00000020: b5aa 60bf d0d2 b3be d737 51bd 3a5d 113e
00000030: b238 623f 457c a93f 30de 64be d89b 803f
00000040: ffe3 813f 7864 ddbe 1cc0 083e bff4 48bf
00000050: 0351 523f 32b6 6a3f 1624 b8bf 5ee3 163f
00000060: 1f09 57bf 93ae 353f 38c4 9b3d bda3 513f
00000070: bfa9 f33e c47d b3be 09d3 aa3e 5d37 0f3f
00000080: 75cc af3f 5656 e9be b728 683e 75bc cbbe
00000090: 45e7 933e 26fd a23e 158f e33f 2e7e 1a3f
000000a0: d03a 50be 29ec 0fbe ee55 94be d6e9 9bbe
000000b0: 162f c1be 088a 503d 195d 1d3e 86cf b13b
000000c0: 36ef b3bf bc18 8f3e 56a1 763e 0176 0bbf
000000d0: 2b7c 18bf 1f02 4e3f fe99 863f 2ebe 3f3f
000000e0: f5ca ebbd 9b81 9d3f c290 3f3e 7a1b 023e
000000f0: 3da9 ba3f fd1b 1dbf 457b 8b3d 6936 b23f

l2.bias f4 [8]
0.9098805 0.45606774 0.83475924 -0.46891117 0.02580281 -0.26203793 -0.064578824 -0.23405738
00000000: eeed 683f b681 e93e c8b2 553f 2015 f0be
00000010: 6a60 d33c d629 86be e741 84bd bdac 6fbe

l3.weight f4 [9, 8]
0.70941055 0.27093095 -1.4175042 -1.2039967 -0.41587317 -0.18261899 0.40327433 -1.6097865
-0.7297755 0.20264895 -1.2860694 0.311651 -0.3136821 -0.113490246 0.44015795 -0.39113644
-1.1059092 0.12868829 -0.40262872 0.8650118 -1.4704345 0.011785201 -1.0354117 0.31239074
-0.63157135 -0.08754189 -1.6414462 -0.3152571 0.47720188 -0.19457631 -0.91035944 -1.449639
0.5426037 -0.7173735 -1.2071385 -0.107561894 -1.5538495 0.17582777 -0.104544304 0.32339746
-1.774167 -0.22991218 -0.59266007 -0.2641601 0.0020825432 -0.0961894 -1.0391362 0.39340636
1.1025414 -0.08469352 0.47967646 -1.1372658 -1.0902784 -0.35696152 -1.766041 -1.208605
-0.34183443 -0.83340716 0.8317755 -0.87894917 -0.17855498 0.19774564 -1.0552821 -1.6530883
-1.763034 0.7884628 0.584311 -0.91603667 -0.7889161 0.26582035 -0.2304301 -0.19960049
00000000: ee9b 353f 76b7 8a3e c770 b5bf 901c 9abf
00000010: 54ed d4be 7900 3bbe f979 ce3e 7c0d cebf
00000020: 91d2 3abf 3583 4f3e ec9d a4bf b890 9f3e
00000030: f19a a0be 936d e8bd 625c e13e 0943 c8be
00000040: 6f8e 8dbf ddc6 033e 5a25 cebe 6a71 5d3f
00000050: 3337 bcbf b716 413c 5f88 84bf aef1 9f3e
00000060: a9ae 21bf 2a49 b3bd e91a d2bf 6169 a1be
00000070: ce53 f43e 033f 47be 510d 69bf c58d b9bf
00000080: 13e8 0a3f caa5 37bf 8483 9abf 6949 dcbd
00000090: 8ae4 c6bf 320c 343e 531b d6bd 5a94 a53e
000000a0: e717 e3bf 196e 6bbe 92b8 17bf fe3f 87be
000000b0: 477b 083b f3fe c4bd 6a02 85bf 8f6c c93e
000000c0: 1420 8d3f cc73 adbd 2798 f53e ed91 91bf
000000d0: 3e8e 8bbf a9c3 b6be a20d e2bf 92b3 9abf
000000e0: ec04 afbe 2c5a 55bf 3def 543f d002 61bf
000000f0: 1ed7 36be d57d 4a3e 7c13 87bf 6698 d3bf
00000100: 19ab e1bf b3d8 493f 6895 153f 6181 6abf
00000110: 68f6 49bf 9b19 883e def5 6bbe 1264 4cbe

l3.bias f4 [9]
-0.26252785 -0.5996761 -0.17399637 0.2849445 -0.12938002 -0.19608766 0.5499242 0.01724705
-0.23683491
00000000: 0d6a 86be 5f84 19bf 1b2c 32be 3fe4 913e
00000010: 327c 04be 34cb 48be d5c7 0c3f af49 8d3c
00000020: da84 72be
